Saved_Models/BinaryClassification_Model.pth (torch, 45318 bytes, 5 tensors)

model.0.weight f4 [100, 3]
0	0xbe0691ba	-0.13141528
1	0xbf06b365	-0.52617484
2	0x3e8a6d8d	0.27036706
3	0x3f1b2d38	0.60615873
4	0x3f0181ce	0.5058869
5	0x3d95891b	0.073015414
6	0x3e78f0fe	0.24310681
7	0x3f119ce0	0.5688
8	0x3dd7496b	0.1051205
9	0xbec03ffc	-0.37548816
10	0xbf0d0295	-0.55082065
11	0x3e8a4055	0.27002206
12	0x3e83dc45	0.2575399
13	0x3f04de20	0.51901436
14	0xbe90b498	-0.28262782
15	0x3e9c10c9	0.30481556
16	0xbe2b6c7b	-0.16740601
17	0xbddf7aab	-0.10912069
18	0x3ec0fca7	0.37692758
19	0xbf07c90a	-0.53041136
20	0x3ed847e8	0.4224236
21	0x3eab725b	0.33485684
22	0xbeab30ce	-0.33435673
23	0x3e9eabac	0.3099035
24	0xbe1c103d	-0.1524057
25	0x3d57d449	0.052692685
26	0xbe23ac8f	-0.15983795
27	0xbf167b18	-0.58781576
28	0xbd443360	-0.047900558
29	0x3ea32035	0.3186051
30	0xbe30d460	-0.17268515
31	0xbe8f4ada	-0.27986795
32	0x3b93595f	0.004496738
33	0x3db5076b	0.088393055
34	0xbe27cb47	-0.16386138
35	0xbeee58ab	-0.46552023
36	0xbea98682	-0.33110434
37	0xbdb87aed	-0.09007821
38	0x3e5c8cab	0.21538036
39	0x3f0759fc	0.5287168
40	0x3baf8ad3	0.0053571253
41	0x3e634a23	0.2219625
42	0x3ea8230f	0.32839248
43	0xbe7ddb0c	-0.24790591
44	0xbe44f518	-0.19234121
45	0x3f0622dd	0.5239695
46	0x3ed591b1	0.41712716
47	0x3e32e3fb	0.1746978
48	0xbee7fb62	-0.45308977
49	0x3ea7f8c7	0.3280699
50	0xbef6e792	-0.4822355
51	0x3eb3631b	0.3503655
52	0x3d9da02a	0.076965645
53	0x3e4792be	0.19489571
54	0xbf1b0c87	-0.6056599
55	0xbe375191	-0.17902209
56	0x3e8b5ec5	0.2722074
57	0x3f01e144	0.50734353
58	0xbe20cfae	-0.15704224
59	0x3f0753fe	0.52862537
60	0xbea3f0f8	-0.32019782
61	0xbeb2f838	-0.34955
62	0xbe967b96	-0.29391164
63	0x3d9f3748	0.07774216
64	0xbdbf5299	-0.09341926
65	0x3e8ec6ac	0.2788595
66	0xbeb46668	-0.3523438
67	0xbe44782b	-0.19186465
68	0xbf167143	-0.58766574
69	0x3ef0c837	0.47027752
70	0xbdcdc174	-0.10046664
71	0xbee490f6	-0.44641846
72	0xbcd18e92	-0.025580678
73	0xb95bfa26	-0.00020978655
74	0x3e25c21c	0.16187328
75	0xbd46e3ad	-0.048556972
76	0x3ebe6c29	0.37191895
77	0xbe4f5ec3	-0.20250992
78	0xbe8a9942	-0.2707005
79	0xbdfbde91	-0.122983105
80	0x3d4e610d	0.050385524
81	0x3f1bb914	0.6082928
82	0x3ca175ea	0.019709546
83	0x3ed55231	0.4166427
84	0x3f00cc8a	0.503121
85	0xbe9c244f	-0.3049645
86	0xbd06d065	-0.032913584
87	0xbecb23be	-0.39675707
88	0x3e32916f	0.17438291
89	0xbe4511c0	-0.19245052
90	0x3e3abf16	0.18236956
91	0x3cb6857c	0.022280447
92	0xbec0a31c	-0.37624443
93	0xbec89d52	-0.39182526
94	0xbf15ffd8	-0.5859351
95	0xbea96da3	-0.3309146
96	0x3e1eebca	0.15519634
97	0x3d174a0e	0.03693586
98	0x3ee39529	0.44449738
99	0xbf0389bd	-0.51382047
100	0xbc6135f6	-0.013745775
101	0xbf07bac5	-0.5301936
102	0xbd6250bb	-0.05525277
103	0x3e42497a	0.18973342
104	0xbf0a3511	-0.5398722
105	0x3f24837d	0.64263135
106	0xbe121cda	-0.14268818
107	0x3f02ba11	0.51065165
108	0xbdd1e12e	-0.10248028
109	0x3ea687fb	0.3252562
110	0x3f06079c	0.5235536
111	0xbe5e7af3	-0.21726589
112	0xbe118860	-0.14212179
113	0x3e9f0e3d	0.3106555
114	0xbf0446e8	-0.51670694
115	0x3ead52fb	0.33852372
116	0xbec1d9f9	-0.37861612
117	0x3f241d2c	0.6410701
118	0xbea8b08a	-0.3294719
119	0xbe3c6fe2	-0.18402055
120	0x3edda637	0.43290874
121	0xbe803572	-0.25040776
122	0x3efea547	0.49735472
123	0x3eedfc13	0.4648138
124	0x3f0e4779	0.5557781
125	0xbf0ab6a6	-0.5418495
126	0x3c58ecf3	0.013240087
127	0xbe3b8c28	-0.18315184
128	0x3e08259f	0.13295601
129	0xbef98318	-0.4873283
130	0x3e7bcbbc	0.24589437
131	0xbc956397	-0.018235965
132	0xbe9bf654	-0.3046137
133	0xbf062337	-0.52397484
134	0x3e9ba7cd	0.3040146
135	0xbe587719	-0.21139182
136	0x3edb869d	0.4287614
137	0x3ddc1ed6	0.10748069
138	0x3e34eb80	0.17667961
139	0xbdb2c7eb	-0.087295376
140	0xbda366f5	-0.07978622
141	0xbe408209	-0.18799604
142	0xbefe4385	-0.49660888
143	0x3eb99c40	0.36252022
144	0xbec9884c	-0.393618
145	0x3ea96f0a	0.3309253
146	0xbe4a2fa3	-0.19744734
147	0x3edc44a1	0.4302111
148	0x3f01b4a5	0.50666267
149	0xbea58c4f	-0.3233361
150	0x3f097462	0.5369321
151	0x3d160535	0.03662606
152	0xbed0552e	-0.40689987
153	0x3eab008f	0.33398864
154	0x3eb74af4	0.35799372
155	0x3f00ecae	0.50361145
156	0xbf1488cf	-0.58021253
157	0x3f056159	0.52101666
158	0x3ee6a694	0.45048964
159	0x3f33d1d7	0.70242065
160	0x3eb14d05	0.34629074
161	0xbe73451a	-0.23756829
162	0x3f12bbcb	0.573178
163	0x3f065268	0.5246949
164	0xbe40ed99	-0.18840636
165	0xbd89abb7	-0.06722205
166	0x3eee548e	0.46548885
167	0x3eea9d8f	0.45823333
168	0x3ef3777c	0.47552097
169	0x3ee85428	0.45376706
170	0xbe89e5d9	-0.26933172
171	0xbe0de727	-0.13857709
172	0xbe6160e1	-0.22009613
173	0x3e965441	0.29361156
174	0x3e2aac5e	0.16667315
175	0xbedfcd5d	-0.43711367
176	0xbd6fa099	-0.058502767
177	0xbf038f8f	-0.5139093
178	0xbf0fa4fe	-0.56111133
179	0x3f0b061a	0.54306185
180	0xbe9f6c66	-0.3113739
181	0x3e818403	0.2529603
182	0xbdfb8708	-0.122816145
183	0xbe070aea	-0.13187757
184	0x3c07e358	0.008293949
185	0x3eed9bc6	0.46407908
186	0xbda5ea47	-0.081013255
187	0x3ef316ee	0.4747843
188	0x3eabda03	0.33564767
189	0x3edc6c89	0.43051556
190	0xbf00a14c	-0.5024612
191	0xbe84cfcb	-0.25939783
192	0xbef09644	-0.46989644
193	0xbdfa0337	-0.122076444
194	0xbdf41c1f	-0.11919426
195	0x3dd61928	0.10454017
196	0x3f02bc83	0.51068896
197	0x3e867fd4	0.262694
198	0xbee348d5	-0.44391504
199	0xbebd262b	-0.36943182
200	0x3eea5cf3	0.4577404
201	0x3d75144f	0.05983382
202	0x3e2e7b77	0.17039286
203	0xbe9b0d36	-0.30283517
204	0xbddf7645	-0.1091123
205	0x3e195bab	0.14976375
206	0xbeca20ed	-0.39478245
207	0x3eef4731	0.46734002
208	0x3ea910bb	0.33020577
209	0xbea0055b	-0.31254086
210	0xbe853c96	-0.26022786
211	0xbe112e94	-0.14177924
212	0x3decf2bf	0.11569738
213	0xbe7346c2	-0.2375746
214	0x3f0e3b27	0.5555901
215	0xbf12fe79	-0.57419544
216	0xbef33a45	-0.47505394
217	0xbe992fbb	-0.29919228
218	0x3dbe1df2	0.09283055
219	0x3d53acd7	0.051678505
220	0xbe2a5201	-0.16632845
221	0x3ef8607f	0.4851112
222	0xbf09a0cd	-0.5376099
223	0x3e2f6ed0	0.17132115
224	0xbeabf8a6	-0.3358814
225	0xbe234d35	-0.15947421
226	0xbf1136c8	-0.56724215
227	0xbef1d1b5	-0.47230306
228	0xbf14b0f7	-0.58082527
229	0x3e14ee92	0.14544132
230	0xbe622904	-0.22085959
231	0x3e9ce07f	0.30640027
232	0xbe9f3a14	-0.31098998
233	0xbe14078b	-0.14456002
234	0x3dad3ab4	0.08458462
235	0x3ef94590	0.48685884
236	0xbe15912f	-0.14606164
237	0x3ecc2060	0.3986845
238	0x3e26139f	0.16218422
239	0x3ebaa0f7	0.3645093
240	0x3f002ab4	0.5006516
241	0x3e8574b4	0.260656
242	0xbe10cd31	-0.14140774
243	0xbe24f713	-0.16109876
244	0x3e627352	0.22114304
245	0x3e9e2da9	0.3089421
246	0xbdbf9227	-0.09354048
247	0x3e8c77ab	0.2743505
248	0xbeb92e90	-0.36168337
249	0x3ea3e076	0.32007188
250	0xbd8dd366	-0.06925087
251	0xbecc964d	-0.3995842
252	0xbec720d6	-0.3889224
253	0xbed14ed4	-0.40880454
254	0x3d856fa2	0.06515433
255	0xbeaaa09d	-0.33325663

model.0.bias f4 [100]
0	0xbe96832d	-0.29396954
1	0xbe4308eb	-0.1904637
2	0x3f1462d9	0.5796333
3	0x3e417856	0.18893561
4	0x3e76a2ae	0.24085495
5	0x3d8f5baa	0.069999054
6	0xbec31814	-0.38104308
7	0x3ecee756	0.4041087
8	0xbda6ccbe	-0.0814452
9	0xbdcb16e2	-0.09916474
10	0x3f0b6b02	0.54460156
11	0xbe8c7a20	-0.27436924
12	0x3e27f1b9	0.16400804
13	0xbef36d0f	-0.47544143
14	0x3e998bad	0.29989377
15	0x3e4f7d43	0.20262627
16	0xbef00827	-0.4688122
17	0x3e9f7f01	0.31151584
18	0x3e0f792f	0.14011072
19	0xbe87a571	-0.2649341
20	0x3f2540e9	0.6455217
21	0x3e710b50	0.23539472
22	0x3e9ad8f5	0.3024365
23	0xbe68f92e	-0.22751305
24	0xbea1a693	-0.315724
25	0xbe9c8cd2	-0.30576187
26	0x3ea60388	0.3242457
27	0x3e1cb844	0.15304667
28	0xbea3a124	-0.31958878
29	0x3f27663b	0.65390366
30	0x3ea98774	0.33111155
31	0xbe3d6522	-0.1849561
32	0x3ea11b06	0.3146593
33	0xbe6c98ab	-0.23105113
34	0x3e5f251a	0.21791497
35	0x3ee85f08	0.45385003
36	0xbf02e8e9	-0.5113664
37	0xbe8eab89	-0.27865246
38	0x3c4d8f84	0.012546424
39	0x3db88bd1	0.09011043
40	0xbef2df3e	-0.47435945
41	0xbec08a8f	-0.37605712
42	0xbd833eff	-0.064085
43	0xbcaf35d9	-0.021387981
44	0x3e1a4810	0.15066552
45	0x3dae637b	0.08515068
46	0x3e0a61f4	0.13513929
47	0x3d16b4a1	0.036793355
48	0x3dd7397a	0.1050901
49	0xbd0baa39	-0.034097884
50	0x3e646e0b	0.22307603
51	0x3ec276b6	0.37981194
52	0xbe88255b	-0.26591
53	0xbe6013b2	-0.21882513
54	0x3e744e4c	0.23857993
55	0xbed46069	-0.41479805
56	0x3eb6ddd3	0.35716113
57	0x3e92e15f	0.2868757
58	0x3d845588	0.06461626
59	0xbe470361	-0.19434883
60	0x3d1e3927	0.038628723
61	0xbee364c6	-0.44412822
62	0xbf0566dc	-0.52110076
63	0x3f0b0bac	0.54314685
64	0xbf04b0a6	-0.51832044
65	0xbef679dc	-0.48139846
66	0xbe383896	-0.17990336
67	0x3d1f56c4	0.038901106
68	0x3e253d00	0.16136551
69	0xbe800a3c	-0.25007808
70	0xbb101ba5	-0.0021989134
71	0xbdb2e6cc	-0.08735427
72	0x3f22df00	0.6362152
73	0x3f0c8eb5	0.54905254
74	0x3eb31c31	0.34982446
75	0x3da7bdde	0.08190511
76	0x3f1fdba6	0.6244453
77	0xbeef6998	-0.4676025
78	0x3e777630	0.24166179
79	0xbe9431cb	-0.2894424
80	0x3ed3fe7f	0.41405103
81	0xbf03ace5	-0.5143569
82	0x3e778d01	0.24174882
83	0xbef3031b	-0.47463307
84	0x3ef9f47a	0.48819333
85	0x3e799d20	0.24376345
86	0x3f160ef3	0.5861656
87	0xbedce066	-0.43139952
88	0x3ec7cce4	0.39023507
89	0xbec8f6fc	-0.39250934
90	0xbe9d9ae7	-0.30782244
91	0x3e71f6c5	0.23629291
92	0xbdd4e9de	-0.10396169
93	0xbee89954	-0.4542948
94	0xbf0029ac	-0.50063586
95	0xbdf84891	-0.12123216
96	0x3e212475	0.15736564
97	0x3ef02473	0.4690281
98	0x3ed43d90	0.41453218
99	0xbc31b056	-0.010845264

model.2.weight f4 [100, 100]
0	0xbd6e5218	-0.05818376
1	0xbdc1ff33	-0.094725035
2	0x3dd80d4b	0.105494104
3	0xbd286529	-0.0411121
4	0xbc4731a8	-0.012157835
5	0xbda7740c	-0.08176431
6	0xbd92d576	-0.07169621
7	0x3cc6224a	0.024186272
8	0xbcc4caba	-0.024022449
9	0x3cda6df7	0.026663763
10	0x3c8272b5	0.015923837
11	0x3ba7cd52	0.0051209116
12	0xbb6fd8be	-0.0036597694
13	0xbbfba775	-0.0076798745
14	0x3d3542c6	0.044253133
15	0x3d934dca	0.071925715
16	0x3db04d15	0.08608452
17	0xbda2a401	-0.079414375
18	0xbd80f8b4	-0.06297436
19	0xbcb86d41	-0.022513034
20	0x3c14f5f1	0.00909184
21	0x3d80fe12	0.0629846
22	0x3dcdf68c	0.10056791
23	0x3cd2edd8	0.025748178
24	0xbd91500a	-0.07095344
25	0xbc24f695	-0.010068555
26	0x3da2d1f5	0.079502024
27	0x3d01f46f	0.03172725
28	0xbd93e5fe	-0.07221602
29	0x3d056c65	0.032574076
30	0xbdbc7ab4	-0.09203091
31	0xbd1c2e6a	-0.0381302
32	0x3da1da88	0.0790301
33	0xbd296a79	-0.041361306
34	0x3d88af4c	0.0667406
35	0xbda478eb	-0.08030876
36	0x3dbd12a2	0.092320696
37	0x3d535bb9	0.051601145
38	0x3d99144b	0.07474574
39	0x3cc79278	0.024361834
40	0x3ae2928f	0.001728611
41	0xbd48d2f6	-0.049029313
42	0xbd5d566e	-0.054037504
43	0xbd6ca285	-0.05777218
44	0x3dc6ecce	0.09713136
45	0xbcab5fdd	-0.020919735
46	0x3b101b48	0.0021988917
47	0xbdaa9177	-0.083285265
48	0x3d20b775	0.03923746
49	0xbd085a93	-0.033289503
50	0xbda3741a	-0.07981129
51	0x3cbd53c5	0.023111233
52	0xbd95de4c	-0.073177904
53	0xbc397ac2	-0.011320772
54	0xbda70569	-0.08155329
55	0x3d8bd137	0.06827014
56	0xbd9c7cd1	-0.07640994
57	0x3cf4bdca	0.029875655
58	0x3d50da05	0.05098917
59	0xbd871049	-0.06594903
60	0x3d96ed29	0.073694535
61	0x3dac1b4b	0.08403643
62	0xbd6edc6d	-0.058315683
63	0x3c4d90b3	0.012546706
64	0x3cfb7aa9	0.030698137
65	0x3daa22ba	0.08307405
66	0x3db7e7ea	0.08979781
67	0xbda80000	-0.08203125
68	0xbd9ca8ad	-0.0764936
69	0xbdb57347	-0.08859878
70	0xbd1e5468	-0.038654715
71	0xbc5ab5dd	-0.013349024
72	0xbc00124b	-0.007816861
73	0x3daa8fbc	0.083281964
74	0xbd5460ee	-0.05185025
75	0xbd9d4ba0	-0.0768044
76	0xbd4b7d9e	-0.049680345
77	0xbd71b053	-0.059006047
78	0x3dda747a	0.106667474
79	0x3bc07025	0.0058727437
80	0xbc8577ad	-0.016292417
81	0xbcdfbfc8	-0.027313128
82	0xbd8c55a8	-0.06852275
83	0xbd0af836	-0.03392812
84	0x3d9521e5	0.072818555
85	0x3d9f1d3c	0.07769248
86	0x3dcc7244	0.09982732
87	0x3bea7681	0.00715524
88	0xbd55d00e	-0.05220037
89	0xbd6c8f70	-0.05775398
90	0x3dc92888	0.09822184
91	0xbdae581d	-0.085129
92	0x3cc7730f	0.024346856
93	0xbbb4c9bc	-0.0055172127
94	0x3dbd8e18	0.09255618
95	0x3d8273d2	0.06369747
96	0xbccca462	-0.024980728
97	0xbd9f4247	-0.07776313
98	0x3c83fb9f	0.016111193
99	0xbd8e52e3	-0.06949403
100	0xbc2fa1a8	-0.010719694
101	0x3d1faf5c	0.038985595
102	0x3d71ad28	0.059003025
103	0xbcfba0e5	-0.030716369
104	0xbd76d0fe	-0.060257904
105	0xbda80644	-0.0820432
106	0xbdb7d39b	-0.089759074
107	0x3c9d543e	0.019205209
108	0xbd7c4d7f	-0.061597344
109	0x37e71a70	2.7549657e-05
110	0xbd5aaba3	-0.05338634
111	0xbd8c53c8	-0.068519175
112	0x3d81061a	0.06299992
113	0x3d79938c	0.060931727
114	0x3d96a7b8	0.073562086
115	0x3de57753	0.112044
116	0xbd973001	-0.07382203
117	0xbd2fcb48	-0.042918473
118	0xbda5adcf	-0.08089792
119	0x3d9b6600	0.07587814
120	0x3d452e99	0.048140142
121	0x3daaf0ba	0.08346696
122	0xbda1658f	-0.07880699
123	0xbd5255cd	-0.051351357
124	0x3dc7a7a5	0.097487725
125	0xbda01e05	-0.07818226
126	0xbd9472da	-0.07248469
127	0x3d55c307	0.052187946
128	0xbdaabf40	-0.08337259
129	0xbd1995c2	-0.037496336
130	0x3d301a0a	0.042993583
131	0x3da3f3d5	0.08005492
132	0xbb9a99ae	-0.004718027
133	0xbdba65bf	-0.09101438
134	0x3d5d9c2f	0.054104026
135	0x3ded3a7b	0.1158342
136	0xbd98d2c1	-0.07462073
137	0xbbaabc89	-0.0052104634
138	0xbd9bc7ed	-0.07606492
139	0xbd33d930	-0.043908298
140	0x3d21795e	0.039422385
141	0x3d5e33cb	0.054248612
142	0x3d2b856b	0.041875284
143	0xbdc6c6b3	-0.097058676
144	0xbce0309f	-0.027366934
145	0x3d2c8563	0.042119395
146	0xbbe26d9a	-0.006910038
147	0xbd04d0f6	-0.032425843
148	0xbd615dc5	-0.055021066
149	0x3dd47fb3	0.10375919
150	0xbd9686b6	-0.07349913
151	0xbd863f82	-0.06555082
152	0x3d8e206d	0.069397785
153	0xbd4c1ceb	-0.049832266
154	0x3d99635b	0.07489654
155	0xbd5ea263	-0.054354083
156	0xbb10ef4e	-0.0022115293
157	0xbd4bec37	-0.04978582
158	0x3daa7b08	0.083242476
159	0x3d87ee72	0.06637277
160	0x3b2288ff	0.0024800894
161	0x3af7706f	0.0018878112
162	0xbd173583	-0.036916267
163	0xbd4fd033	-0.050735664
164	0xbd1aee53	-0.03782494
165	0x3d1324ca	0.035923757
166	0xbca7d90b	-0.020489236
167	0x3d8bcaf7	0.06825822
168	0x3c402c2f	0.011729284
169	0x3bf45484	0.007456364
170	0xbd821d93	-0.06353297
171	0x3d2358f3	0.03987975
172	0xbdd4a7c8	-0.10383564
173	0x3cd740ca	0.026276011
174	0x3ce2ed95	0.027701179
175	0x3c520ce0	0.012820452
176	0x3d6fd97e	0.058557026
177	0x3ccb4783	0.024814373
178	0xbcbe70bc	-0.023247115
179	0xbd8303a8	-0.06397182
180	0xbda6592e	-0.081224784
181	0x3d4c561b	0.049886804
182	0x3d594032	0.053039737
183	0xbd9a4492	-0.0753261
184	0x3c9dafba	0.019248832
185	0xbd287159	-0.04112372
186	0x3d9399f1	0.07207096
187	0xbcfccdda	-0.030859876
188	0x3db1f93b	0.08690115
189	0x3d904761	0.070448644
190	0x3d64ee12	0.055891104
191	0x3d884ae8	0.06654912
192	0x3cf169d3	0.029469406
193	0x3d08259e	0.033239
194	0xbda8366b	-0.082135044
195	0xbcc384bf	-0.02386701
196	0xbc1a1afc	-0.009405848
197	0x3d6c70e4	0.05772485
198	0xbd14f372	-0.03636498
199	0x3d38770e	0.045035414
200	0x3d897eff	0.06713676
201	0x3d58ef75	0.05296274
202	0x3d8050c6	0.06265406
203	0xbc8cb634	-0.017176725
204	0x3d5fd6ee	0.054648332
205	0xbd00a5b8	-0.03140804
206	0x3db95351	0.090490945
207	0x3b40bba0	0.0029408708
208	0xbbd12fb4	-0.0063838605
209	0xbdb62f39	-0.08895726
210	0x3db33f1b	0.08752271
211	0xbc60c3ef	-0.013718589
212	0x3d94a1ee	0.07257448
213	0xbd7e7c17	-0.06213006
214	0xbda5bd7c	-0.08092782
215	0xbb107531	-0.0022042508
216	0xbda51c4a	-0.08062036
217	0x3ce7ee51	0.02831188
218	0xbabdf284	-0.0014491831
219	0xbcf5ddd9	-0.030013012
220	0x3d586867	0.05283394
221	0x3d8a16fb	0.067426644
222	0xbdc48387	-0.09595399
223	0xbd9c853d	-0.07642601
224	0x3d6fa022	0.058502324
225	0xbd731816	-0.059349142
226	0x3c76731b	0.015042092
227	0xbc64e783	-0.013971212
228	0x3cb6bd60	0.022307098
229	0xbd783c5d	-0.060604442
230	0x3a98e261	0.0011664146
231	0xbd1ccb3d	-0.03827976
232	0xbd1bc62c	-0.03803079
233	0xbd531300	-0.05153179
234	0x3cad0582	0.02112079
235	0x3da0f5ad	0.07859359
236	0xbaa3c62e	-0.0012494975
237	0xba93ab20	-0.0011266209
238	0x3da52880	0.080643654
239	0x3db29606	0.08720021
240	0xbc25cce1	-0.010119648
241	0xbd9abc7e	-0.07555483
242	0x3cc23574	0.023707129
243	0x3cefd049	0.029274123
244	0xbda8883b	-0.08229109
245	0xbdb32c0b	-0.08748635
246	0x3c4ca231	0.012489841
247	0x3dc4bf92	0.09606852
248	0xbdb95140	-0.090487
249	0xbd294f6c	-0.04133551
250	0xbce5cb60	-0.028051078
251	0xbd99b1e0	-0.0750463
252	0xbd76aa4d	-0.060221005
253	0x3db3e223	0.087833665
254	0x3db5f7f0	0.08885181
255	0xbd91a35b	-0.07111236

model.2.bias f4 [100]
0	0x3d4ab1ff	0.049486157
1	0xbd704635	-0.058660705
2	0x3db87c21	0.09008051
3	0xbc13898e	-0.009004964
4	0xbd1ca8f1	-0.038247053
5	0xbcc7a43d	-0.024370307
6	0x3e1ab9e5	0.15109976
7	0x3e397ade	0.18113276
8	0xbd86412d	-0.065554
9	0x3c9103f9	0.01770209
10	0x3daeae2f	0.08529317
11	0xbcc0df49	-0.02354397
12	0x3c9dc967	0.019261075
13	0x3ca15f89	0.019698875
14	0xbd524462	-0.051334746
15	0x3db87863	0.09007337
16	0x3da3ae4c	0.07992229
17	0x3ce45e4f	0.027877001
18	0xbd63d2fd	-0.055621136
19	0x3d15464a	0.036443986
20	0xbd83250d	-0.06403551
21	0xbda99fb1	-0.08282412
22	0xbd6f5b5c	-0.058436736
23	0x3d8fbe4c	0.07018718
24	0x3da1c45c	0.07898781
25	0x3bf3fad0	0.0074456707
26	0x3dce7932	0.1008171
27	0xbc1792ba	-0.009251291
28	0x3dcf87b1	0.10133303
29	0xbd93a26d	-0.07208715
30	0xbd956e3c	-0.07296416
31	0x3dde10b2	0.10843028
32	0x3dcaec57	0.099083595
33	0x3d274640	0.04083848
34	0x3dbd9773	0.09257402
35	0xbd72709e	-0.05918943
36	0x3e2edca3	0.17076354
37	0x3d0055ec	0.03133194
38	0x3ccc7a3b	0.024960628
39	0xbc0b442f	-0.008500143
40	0xbda4299d	-0.080157496
41	0x3d651ebe	0.05593752
42	0x3da73e71	0.08166207
43	0x3d8d2d0f	0.0689336
44	0x3e070886	0.13186845
45	0xbdad95fa	-0.084758714
46	0x3e43cf43	0.19122033
47	0xbb927cbb	-0.0044704354
48	0x3bb0e8e2	0.0053988555
49	0x3da5633d	0.08075569
50	0xbcbe742e	-0.023248758
51	0x3dcf0fc5	0.1011043
52	0x3c4ea055	0.012611468
53	0xbd71bc06	-0.059017204
54	0x3d766772	0.060157247
55	0x3ca9e3f9	0.020738589
56	0x3dc2a970	0.09504974
57	0xbd419c5f	-0.047268268
58	0xbda75780	-0.08170986
59	0x3dcf0a93	0.10109439
60	0xbd44db46	-0.048060678
61	0xbccd193a	-0.025036443
62	0xbda17a49	-0.07884652
63	0x3dd623d2	0.10456051
64	0xbd4d1766	-0.050071143
65	0x3d869190	0.065707326
66	0x3d3ef9d5	0.046624977
67	0x3d0186fe	0.03162288
68	0x3d7413cf	0.059589203
69	0xbda4e0fb	-0.08050724
70	0x3bfc3afb	0.0076974607
71	0xbd922e1b	-0.071377
72	0x3d947b88	0.07250124
73	0xbd8f4e3f	-0.06997346
74	0x3db52fc4	0.08847001
75	0xbda34633	-0.07972374
76	0xbd8f96f1	-0.07011212
77	0xbc0524c7	-0.008126444
78	0xbdabfd50	-0.08397925
79	0x3d983c8f	0.07433426
80	0x3dbdaa7f	0.09261035
81	0xbd0c394d	-0.034234334
82	0x3daef6a8	0.0854314
83	0xbd0ee15b	-0.034882884
84	0x3d2883fb	0.04114149
85	0xbc8cb1db	-0.017174652
86	0xbc28405b	-0.01026925
87	0xbced6cd1	-0.028982552
88	0x3cf24acf	0.029576687
89	0xbb08decf	-0.0020884757
90	0xbdcb2a68	-0.09920198
91	0x3dc7f430	0.09763372
92	0x3da873e4	0.082252294
93	0x3da6cc5f	0.081444494
94	0x3df48b4f	0.119406335
95	0x3ccb6715	0.024829427
96	0x3d91771e	0.07102798
97	0x3d435588	0.04768899
98	0xbd861c12	-0.06548323
99	0xbc0e0573	-0.008668291

model.4.weight f4 [1, 100]
0	0xbe0d7725	-0.13814981
1	0x3db88549	0.09009797
2	0x3d80331c	0.06259748
3	0xbdfa5a56	-0.122242615
4	0x3dff08d8	0.12452859
5	0x3db45893	0.08805957
6	0xbe91bd92	-0.28464943
7	0xbf16f601	-0.5896912
8	0xbd4cdca2	-0.0500151
9	0x3c6a28aa	0.014291922
10	0xbe4ea913	-0.20181684
11	0xbccc0851	-0.02490631
12	0x3ec8ff5a	0.39257318
13	0xbf011608	-0.5042424
14	0x3bee7a1e	0.007277741
15	0xbe12c912	-0.14334515
16	0x3d9a013a	0.07519765
17	0x3dce596c	0.100756496
18	0xbd749216	-0.05970963
19	0xbd4d4a77	-0.050119843
20	0x3ea14b0e	0.31502575
21	0x3e100d50	0.14067578
22	0x3e2371ef	0.15961431
23	0xbec08811	-0.3760381
24	0xbeb513ba	-0.35366613
25	0x3db8b69b	0.09019204
26	0xbdb31cd1	-0.08745731
27	0xbc207453	-0.009793359
28	0xbdda6561	-0.10663868
29	0xbc88fabc	-0.016721122
30	0x3e65d149	0.22443117
31	0xbed26688	-0.4109385
32	0xbe9746f1	-0.29546311
33	0xbdea2628	-0.11433059
34	0x3cd57791	0.02605799
35	0x3e4d1e96	0.20031199
36	0xbe9b53a2	-0.30337244
37	0xbd333540	-0.043751955
38	0xbd805917	-0.062669925
39	0x3a8f110f	0.0010915118
40	0x3ec75c97	0.38937828
41	0xbca1e74f	-0.019763617
42	0xbea9b81d	-0.3314828
43	0xbd7b2c77	-0.0613217
44	0xbea06ffd	-0.3133544
45	0x3bf5ca7e	0.0075009456
46	0xbec4ce1e	-0.38438505
47	0xbdbfb9dd	-0.093616225
48	0xbe94386e	-0.28949302
49	0x3e6ddd46	0.2322894
50	0x3e7d7d04	0.24754721
51	0xbedb51fd	-0.4283599
52	0xba40b347	-0.0007350933
53	0x3e800d78	0.25010276
54	0x3bc00153	0.005859533
55	0x3e3efd47	0.18651305
56	0xbdd072f8	-0.101781785
57	0x3eedef74	0.4647175
58	0xbd23148b	-0.039814513
59	0xbeaa174f	-0.33220908
60	0x3e862755	0.26201883
61	0x3ea826e3	0.32842168
62	0x3d504f29	0.050856743
63	0xbdeb7149	-0.11496217
64	0xbd2cd0b8	-0.042191237
65	0xbe907c96	-0.28220052
66	0xbe0fc127	-0.14038526
67	0xbe859f6b	-0.2609819
68	0xbb82b60f	-0.003988988
69	0x3cb2073e	0.021731969
70	0xbe1928fe	-0.14957044
71	0x3dc36815	0.095413364
72	0xbd9ff63a	-0.07810636
73	0x3d6b99d6	0.057519756
74	0xbc87fa8f	-0.016598968
75	0x3e6546f9	0.22390355
76	0xbdd8049c	-0.10547754
77	0x3e903eda	0.28172952
78	0x3ecb498b	0.39704546
79	0x3e8e20c4	0.27759373
80	0x3de7f4d6	0.113259956
81	0xbc9f9078	-0.019478068
82	0xbda8dce4	-0.082452565
83	0xbdcc6751	-0.099806435
84	0xbd59dfbe	-0.053191893
85	0xbe865b9e	-0.26241773
86	0x3d2d1c03	0.042263042
87	0x3c81e8dd	0.015858108
88	0xbdc870ae	-0.09787117
89	0x3ef35d4a	0.4753211
90	0x3d1294bd	0.03578638
91	0xbec49963	-0.38398275
92	0x3d5d4d7f	0.054028984
93	0x3dbcdaa3	0.09221389
94	0xbecee459	-0.4040859
95	0xbe2aad24	-0.1666761
96	0x3d7f2954	0.062295273
97	0xbd12d4ec	-0.03584759
98	0xbd572434	-0.05252476
99	0x3aeae710	0.0017921645
