Saved_Models/MulticlassesClassification_Model.pth (torch, 46594 bytes, 6 tensors)

model.0.weight f4 [100, 4]
000000 94 96 a4 be 44 8d 7c be 60 ab 49 3e b0 85 4a 3d
       -0.32146132 -0.24663264 0.1969428 0.0494439
000010 40 d2 67 bc 24 b4 fd be a8 fd b5 be 7a 4f ad 3e
       -0.014149249 -0.495515 -0.35545087 0.33849698
000020 3d ee 14 be ca 5c 0b 3f 28 80 97 3e c0 cd 11 3f
       -0.14544006 0.5443846 0.29589963 0.56954575
000030 4d bc 1f be c9 86 e6 bd ea 76 93 3e fb 2f 87 3f
       -0.15599175 -0.11256177 0.28801662 1.0561517
000040 70 16 1a 3d 6e c6 ca be 40 f4 ab bc 88 32 d9 bd
       0.037619054 -0.39604515 -0.02099049 -0.10605341
000050 fe 83 55 3e 67 53 1a be 36 89 9b 3e 52 34 01 bf
       0.20851132 -0.15070878 0.3037812 -0.5047046
000060 6a b5 f2 3e 7c 18 b9 3e 4f a8 97 be 7b 35 3a bf
       0.47404033 0.36151493 -0.29620597 -0.72737855
000070 dc 44 98 be a4 d0 33 3e bc d2 23 3e 00 92 8e ba
       -0.29740036 0.17560059 0.15998358 -0.0010877252
000080 90 2d 1a be 08 e5 a6 3d 6c d3 37 3e e8 eb 05 be
       -0.15056443 0.08149153 0.17951745 -0.13078272
000090 22 6a 83 3e bb 91 c4 be 4e 26 bd 3e 37 68 23 3f
       0.2566691 -0.38392434 0.36943287 0.63830894
0000a0 f4 08 13 be a0 72 2c 3e 94 e4 a0 be a0 c2 d6 bc
       -0.14358884 0.16840601 -0.3142439 -0.026215851
0000b0 7e 33 bf be 40 ae 2d be 5c 39 20 be 50 5b 50 3d
       -0.37343973 -0.16961002 -0.15646881 0.050868332
0000c0 61 d8 9a 3e 86 33 b4 3e 58 ee 50 be 55 ef 2f bf
       0.3024321 0.3519556 -0.20403421 -0.68724567
0000d0 bc 16 9f 3e 37 d6 c2 be 20 36 19 3e 10 31 48 3f
       0.31072032 -0.38054058 0.14962053 0.78199863
0000e0 5f 3c 90 3e 5e e1 fe bd cf 5b b6 3e 9d d2 98 be
       0.2817106 -0.12445329 0.3561692 -0.29848185
0000f0 2d b9 b2 3d d3 34 ed 3e 1d 7f f2 be ee 5e d4 3e
       0.08726726 0.46329364 -0.47362605 0.41478676
000100 4e c3 94 be 50 e9 01 bd 0e 35 9e 3e 98 cb a0 bd
       -0.29055256 -0.031716645 0.30899853 -0.078513324
000110 00 40 a3 3c 40 e6 fb bc ac 43 69 be bc d5 71 3e
       0.019927979 -0.03074944 -0.22779721 0.2361669
000120 19 65 a8 3e ea 31 1b bb 99 31 19 bf 5a 40 0c 3f
       0.3288963 -0.0023680874 -0.59841305 0.5478569
000130 69 33 ae 3e 5c dd 17 bd 23 e9 17 3e 39 5c 4e bf
       0.34023598 -0.03707634 0.14835028 -0.8060947
000140 b6 9f d9 be c3 d5 1e 3f 98 bc af 3d 45 14 a3 3c
       -0.42504662 0.62044924 0.08580893 0.019907126
000150 26 27 f7 3d 90 f7 0f bf 63 19 96 3e 3d b6 3e 3f
       0.12068014 -0.56237125 0.29316244 0.74496824
000160 b8 64 1d be 80 6e 82 3e 54 1a e7 be 22 1b da 3e
       -0.15370452 0.2547493 -0.45137274 0.42598826
000170 0c 7e 48 be be dc 4f 3e 09 2b 09 3f 9d 7e 3f 3f
       -0.19579333 0.2029905 0.5358129 0.7480257
000180 a7 80 d6 3e 26 9d c7 be ec 4e 9d bd 56 7a dc be
       0.4189503 -0.38987082 -0.07681069 -0.43062085
000190 02 4a 9f be 6a e6 cf be a0 d5 bc 3e 8a 1d c9 be
       -0.3111115 -0.4060548 0.36881733 -0.3928035
0001a0 d0 11 d3 bd 28 f3 aa bd fc a1 6f be 26 42 e5 be
       -0.10306132 -0.083471596 -0.23401636 -0.4477703
0001b0 50 ab 57 bd 00 1e a1 3a f0 42 a8 be f4 d7 77 3e
       -0.05265361 0.0012292266 -0.3286357 0.24203473
0001c0 9d 21 f6 be ea c8 31 be 4d ff 99 3e bd 77 83 3f
       -0.4807252 -0.17361799 0.30077592 1.0270916
0001d0 fc bf e9 be 1c d8 97 3e c0 0e 5e be 98 ba 98 bd
       -0.45654285 0.29657066 -0.21685314 -0.07457465
0001e0 75 74 dc 3e c2 f4 5b bb ee 96 d8 3e bc 5d bf 3e
       0.430576 -0.0033562635 0.4230265 0.373762
0001f0 74 33 a7 be a8 aa c3 be 88 6d 72 3e e4 5a 30 3e
       -0.32656443 -0.38216138 0.23674595 0.17222172
000200 82 e7 53 3e 51 f6 b3 be b9 0c fe 3e c7 18 95 be
       0.20693782 -0.35148862 0.49619082 -0.29120466
000210 7e 69 e6 3e bd 71 a7 3e 9d 47 ad be ae aa 56 bf
       0.4500236 0.32703963 -0.338437 -0.83854187
000220 8c 93 91 3e 28 41 37 be f9 36 c7 bb fe 00 97 3e
       0.28432882 -0.17895949 -0.0060795513 0.29492944
000230 b6 ee 88 be f4 9c 5d be 80 bc 52 3d 7e 14 8e be
       -0.26744622 -0.21641904 0.0514493 -0.2775001
000240 57 3f b7 3e 73 a0 2a bf eb 9b f1 3e f3 1e 8c 3e
       0.35790512 -0.66651076 0.47189268 0.27367362
000250 b4 91 11 3e 64 c5 e3 be fe 2d eb be 30 ab ec bd
       0.14215738 -0.44486535 -0.45933527 -0.11556089
000260 f4 38 e8 be 2c 75 c5 be 46 4e ae 3e 10 06 f1 3d
       -0.45355952 -0.38565958 0.34044093 0.117687345
000270 fe 4e 81 3e a0 15 fd be 40 0c 96 bd 08 22 f1 be
       0.2525558 -0.4943056 -0.07326555 -0.47096276
000280 a3 ee 0b be 78 c9 11 3f c3 ac 45 3e c3 e2 43 bf
       -0.13665251 0.5694804 0.19304185 -0.76517886
000290 e8 d6 8a be a0 39 25 be ca 90 a0 be ee aa f1 be
       -0.27117085 -0.16135263 -0.31360465 -0.47200722
0002a0 54 85 7a be 00 ff 24 3d 58 a5 f3 3d 80 7d 03 bc
       -0.24464923 0.04028225 0.11896771 -0.008025527
0002b0 84 5a 83 3e b7 40 41 3d 10 d2 69 bd 48 68 33 be
       0.25654995 0.047180858 -0.057085097 -0.17520249
0002c0 e6 af f0 be e8 ce c2 bd 00 1c a0 ba 54 f9 da be
       -0.470092 -0.095121205 -0.0012215376 -0.42768347
0002d0 a2 e4 69 3e e4 9c eb be 80 11 ca b9 ba ea 10 3f
       0.22841123 -0.46018136 -0.0003854148 0.56608164
0002e0 5c 2b c9 be 53 1d fd bc 9c 65 c8 3e 9d 17 fd 3e
       -0.39290893 -0.030897772 0.39140022 0.49432078
0002f0 0e 84 d4 be 34 75 0e 3e 82 d2 d8 be 00 d8 bc be
       -0.41507 0.13911897 -0.42348105 -0.36883545
000300 5d 4f 54 3e d8 83 0c 3f e4 e9 b9 3e 9f ac 85 bf
       0.207334 0.5488868 0.36311257 -1.0443305
000310 d2 d8 03 3f 9d c3 3b 3f f3 29 54 be ea 3c 5a be
       0.51502717 0.7334536 -0.20719127 -0.213123
000320 c0 6a 91 be 80 05 31 bc 8c b6 f8 be e8 01 93 3d
       -0.28401756 -0.010804534 -0.48576772 0.07178098
000330 84 ed 1e 3e 06 7a f6 be f0 42 67 be da 53 fa 3e
       0.15520293 -0.48139971 -0.22584128 0.488921
000340 b0 06 a1 be 2a 78 c7 be 40 73 16 be 38 c9 9f bd
       -0.31450415 -0.38958865 -0.14692402 -0.07802051
000350 4c 12 0d be 8c ed ce be 28 13 80 3e d8 27 e1 3d
       -0.13776511 -0.4041561 0.25014615 0.10993928
000360 3e 0a b9 3d ae 5d cd 3e 4f 10 54 bd 2a ac 69 bf
       0.09035157 0.40110534 -0.051773366 -0.91278327
000370 7d 9f 28 3e c5 07 7e 3e fd 93 4f be e0 bd 13 bf
       0.1646709 0.24807651 -0.20271297 -0.577116
000380 f9 30 ce 3e 38 b9 5a bb eb d0 08 3f 78 28 2b 3f
       0.40271738 -0.003337456 0.53443784 0.66858625
000390 3a b1 f2 be 30 2d 04 3d b8 67 aa 3d e8 41 6e 3e
       -0.47400838 0.032269657 0.08320564 0.23267329
0003a0 0f 13 f9 3e 73 6c 97 3d 61 97 de bd d2 b6 68 bf
       0.48647353 0.07393732 -0.10868717 -0.9090396
0003b0 d0 d4 40 be a4 fe ce be 58 8b d8 be 4c a0 1b be
       -0.18831182 -0.4042865 -0.4229381 -0.15197867
0003c0 40 e5 23 be 38 04 af be 30 9f 69 be 80 e9 cb bb
       -0.1600542 -0.34182906 -0.22814631 -0.0062229037
0003d0 17 ee 87 3e 3e c7 07 3f 46 19 cc be 54 31 e5 be
       0.26548836 0.53038394 -0.39863032 -0.44764197
0003e0 ec 3b e3 3d 02 80 18 bf 3d 1f 55 3e b6 a0 b3 3e
       0.110954136 -0.59570324 0.20812698 0.3508355
0003f0 54 33 a6 3e ae 9c 0b 3e 1a 58 83 3e 00 b5 f7 bc
       0.32461035 0.13633987 0.25653154 -0.030237675

model.0.bias f4 [100]
000000 68 22 d0 be 00 a0 2c 3e db 6f 17 bf 02 e7 34 3e
       -0.4065125 0.1685791 -0.5915505 0.17666247
000010 40 23 2a 3c d0 49 dd 3e 0b 94 5d 3f e4 93 86 3e
       0.010384381 0.43220377 0.8655402 0.26284707
000020 34 cf 7f be 60 a5 0b 3e e4 56 7a be 6c 10 85 be
       -0.24981385 0.13637304 -0.24447209 -0.2598909
000030 d3 6f 82 3d e0 7e 47 bf 61 26 a5 3e dd 7b 11 3f
       0.06368985 -0.7792797 0.32255843 0.56829625
000040 10 96 db bd 7c 9c 2a be 61 e6 35 3f f3 49 02 3f
       -0.107219815 -0.16661257 0.71054655 0.5089409
000050 96 15 f2 3e 06 5f c4 bb a8 b1 89 be 1b d5 e2 bd
       0.47282094 -0.005992773 -0.26893353 -0.11075803
000060 7f e8 9b 3e 70 a8 22 3d 7c fb fb 3e 30 d5 f3 3d
       0.30450818 0.039711416 0.49215305 0.11905897
000070 cb 7e e0 3e 0e 23 a4 be 98 8c c9 be 5a e4 a0 be
       0.43846735 -0.32057995 -0.39365077 -0.31424218
000080 61 e5 3a bf bf 92 1b 3e 02 2d 3c be cc 3a 33 3e
       -0.73006254 0.15192698 -0.18376544 0.17502898
000090 fb 26 36 3e e6 20 9f 3e f0 52 2a 3d 7c 04 55 be
       0.17788307 0.31079787 0.041583 -0.20802492
0000a0 c9 5d 7a be 46 1a df 3e 5a 22 8d 3e 57 22 77 3f
       -0.24449839 0.43574733 0.2756527 0.96536773
0000b0 a0 38 df 3e 80 59 27 bf 32 5d a9 3e 7c e2 36 be
       0.4359789 -0.6537094 0.33078915 -0.17859834
0000c0 8b 1c be be 29 bf 4c be 0e a7 c1 3e 00 70 2c 3c
       -0.37131152 -0.19994797 0.37822765 0.01052475
0000d0 86 ba eb 3e 20 9a 64 3e 60 88 5b 3e b5 42 5e be
       0.46040744 0.22324419 0.21438742 -0.21705134
0000e0 80 03 01 bf 40 68 e3 3c 7f b6 65 3f be 9d 81 3e
       -0.50395966 0.027759671 0.8973159 0.2531566
0000f0 80 0d 9e 3b 76 86 59 3f f1 c3 d2 3e 35 49 6d 3e
       0.0048233867 0.84970796 0.41165116 0.23172458
000100 f7 05 a8 be 76 ee 0d 3f 62 b8 5e bf c0 b2 9f 3c
       -0.3281705 0.5544199 -0.87000096 0.019494414
000110 0c 6f b0 be 63 97 51 3f 56 3e f3 be f4 8f 48 be
       -0.34459722 0.8187162 -0.47508496 -0.19586164
000120 6e 24 87 be 2e 9c da 3e 9f fe b6 3e 54 50 ab bd
       -0.2639498 0.4269728 0.35741135 -0.08364931
000130 80 b4 ef bd 20 bf 85 3d 72 b9 63 3f 1e c1 f3 3e
       -0.117043495 0.06530595 0.8895484 0.47608274
000140 d8 23 46 bf 35 9d 8f be a8 7f d9 3e d6 c0 aa 3e
       -0.77398443 -0.28049627 0.42480206 0.33350247
000150 fc 9b d7 be 0a 83 d1 bc 34 95 20 be 9c f2 9d 3e
       -0.42111194 -0.02557518 -0.15681916 0.3084916
000160 46 7c cf be 5e 1e a0 be b1 34 1c bf 2a d3 56 bf
       -0.405245 -0.31273168 -0.610179 -0.8391596
000170 fc 64 ec 3e 50 e0 35 bf c4 16 90 bd 5e 7f e4 be
       0.46170795 -0.710454 -0.07035592 -0.44628423
000180 07 9e c7 3e a8 f8 15 bf ee ec 01 be 1e 3f 75 bf
       0.38987753 -0.58582544 -0.12688038 -0.95799434

model.2.weight f4 [100, 100]
000000 64 24 e2 3c 9a 91 c5 bd f1 3e 81 3b 65 d0 8f bc
       0.027605243 -0.09646912 0.003944271 -0.017555425
000010 76 a5 9d bd 05 1c 9c 3d 00 f4 13 3e 46 e6 10 3d
       -0.07697575 0.07622532 0.14448547 0.035375856
000020 ce ea 29 3d ba 68 b4 3b e5 02 c0 bd 87 2f ca bd
       0.041483693 0.0055056484 -0.09375552 -0.09872346
000030 69 8a 04 3e df 28 ec bd c9 ce 7c bd 78 35 05 3e
       0.12943424 -0.11531233 -0.061720643 0.13008678
000040 e4 c2 86 bd ea 02 00 3d 1c 2a 1c 3e 25 c2 13 3e
       -0.06580141 0.03125278 0.15250438 0.14429529
000050 8a e9 85 3f f7 c8 99 bc f3 36 9a bd 01 0a fb 3b
       1.0461895 -0.018772585 -0.07530012 0.0076611047
000060 67 61 ed 3d 58 50 1a 3c 40 e4 17 3c 52 65 12 3d
       0.11590844 0.0094185695 0.009270728 0.035741158
000070 d1 ff 7d 3e b5 74 a4 3d 95 44 1d 3d 03 6c 87 3d
       0.24804617 0.080300726 0.038395483 0.066123985
000080 c8 1e 09 be c6 93 4f 3e ca 0c ff bd 80 00 43 bc
       -0.13390648 0.20271215 -0.12453611 -0.011901975
000090 49 e0 97 bd 98 a4 8d bd a3 44 b1 3d 31 43 a5 3d
       -0.07415826 -0.069161594 0.086556695 0.08069456
0000a0 83 f6 b6 3e 60 9c 4c bb 91 54 ad 3d 3b 47 92 3c
       0.3573495 -0.0031221136 0.084633954 0.017856231
0000b0 ea d2 23 bd 14 ac 03 bf 23 23 24 be d0 9a 29 3c
       -0.039996065 -0.51434445 -0.16029029 0.010351852
0000c0 f4 e6 12 3e 09 41 16 3e 62 9c 59 3d 1a ad a0 bd
       0.14345914 0.14673246 0.053127654 -0.078455165
0000d0 c8 cd c6 bc ff 78 b7 bd 6d ff b0 3e 0f c3 ae bc
       -0.024268046 -0.08958625 0.34569874 -0.021333246
0000e0 9e ba 48 3d 6c 1b a5 bc c8 88 d8 3d 00 8d 4f bb
       0.049006097 -0.020154677 0.10572964 -0.0031669736
0000f0 1e 22 13 3d 64 7f 08 3e 90 14 2c bd 6c 9f 4b 3d
       0.03592121 0.13329846 -0.042011797 0.049712583
000100 82 66 bc be c0 87 00 3e 4d 22 0a be e2 9a 84 bd
       -0.36796957 0.12551785 -0.13489647 -0.06474854
000110 3d d7 26 bd d7 f3 03 3e 00 46 1b bd 48 87 cf bc
       -0.04073261 0.12885986 -0.037908554 -0.025333062
000120 30 17 0d bd cf 61 bd bd 97 22 04 bd cb 66 f0 3d
       -0.03444594 -0.09247171 -0.03225955 0.11738356
000130 f0 c6 6d bd ca c8 ae bd 7f 15 86 3c 78 b1 94 bc
       -0.05805105 -0.08534391 0.016367672 -0.01815103
000140 ab 09 57 be f6 21 1c 3e f9 b2 87 3d 47 a5 c1 3d
       -0.20999782 0.1524733 0.06625933 0.09455352
000150 00 98 c3 3b 20 d6 e0 3c 24 d1 f1 3c 8f 93 dd 3d
       0.0059690475 0.027445853 0.029518671 0.1081916
000160 94 12 fd bc ff 09 b7 3d 92 df 98 be bf fc 4b bd
       -0.030892648 0.089374535 -0.2985807 -0.049801584
000170 2d 46 2c 3e 66 56 19 3d 88 b0 be bd 17 06 b7 3d
       0.16823645 0.03743591 -0.093110144 0.089367084
000180 dd 11 7d 3d a8 94 77 be 02 4c 6f be 58 05 db bc
       0.061784614 -0.24177802 -0.23368838 -0.026735947
000190 47 1d b3 bd 80 a1 42 bd 68 da 1c bc 18 9d 55 bc
       -0.087458186 -0.0475173 -0.0095735565 -0.013037942
0001a0 fd 22 c5 bd 3d ae aa bd 8b df ac 3d 60 65 17 bb
       -0.09625814 -0.083340146 0.08441075 -0.0023101196
0001b0 4b ce 9f bd 37 36 28 bd d8 65 ca bd 67 b4 af bd
       -0.07803019 -0.04106733 -0.098827064 -0.08579331
0001c0 68 80 89 bc 00 d1 45 3b ec a7 a2 3c f6 b4 0b 3d
       -0.016784862 0.0030184388 0.019855462 0.034108125
0001d0 68 7a be bd 96 69 3b 3d 60 ae c0 bd c6 55 82 bd
       -0.09300691 0.04575499 -0.094082594 -0.06364016
0001e0 60 a1 88 3c 82 e0 68 3d 32 4a 7e 3d e7 74 49 bd
       0.016678512 0.056854732 0.062082477 -0.049183752
0001f0 94 6e c8 3c d0 6f 67 bd 72 10 5f 3d 48 99 9f bd
       0.02446679 -0.056503117 0.054459043 -0.07792908
000200 79 61 8e 3d 5a 41 69 3d 00 64 b0 3a d1 d2 92 3d
       0.06952185 0.05694709 0.0013457537 0.07169116
000210 ba c5 1e bd f4 bb 8b bc 20 20 ce bb a1 b2 8e 3d
       -0.038762785 -0.017057396 -0.0062904507 0.069676645
000220 14 dc b1 bc 0c c8 8e bc ad 65 9d bd 9d de ac bd
       -0.021711387 -0.017429374 -0.07685409 -0.084408976
000230 e8 93 fa bc df 7a bd 3d fe 17 37 3d 00 b8 2c 3a
       -0.030588105 0.092519514 0.044700615 0.00065886974
000240 46 25 1b 3d 00 98 e5 39 50 b4 79 bc 0c 2a e0 3c
       0.037877344 0.00043791533 -0.015240744 0.0273638
000250 98 2c 5f 3c 9a 37 03 bd 23 4f 73 bd d0 5c 23 3c
       0.013621472 -0.032035448 -0.059401643 0.009970859
000260 84 2b e8 3c d8 44 07 3c 22 99 38 3d dd 3e a1 bd
       0.028341062 0.00825616 0.045067914 -0.07873318
000270 58 59 3c bc 2d 9d ca bd 03 e8 57 bd d8 7f cc bd
       -0.011495911 -0.0989326 -0.052711498 -0.09985322
000280 e0 5d 82 bc 6d b5 55 bd 90 c8 16 3c ad a1 c4 bd
       -0.015913904 -0.052174974 0.009203091 -0.0960115
000290 59 52 c9 3d 08 d1 95 bd 10 16 2f bd ec 7d 80 bd
       0.0983016 -0.0731526 -0.04274565 -0.06274018
0002a0 8a df 61 3d ed 6c 90 3d 60 45 c5 bb 5e 41 64 3d
       0.055144824 0.07052026 -0.006020233 0.0557264
0002b0 33 00 1e bd 1b 9a 93 3d e3 b2 72 bd 2a 22 97 bd
       -0.03857441 0.07207128 -0.05925263 -0.07379563
0002c0 ed 02 b3 3d e9 31 99 3d d2 0f 0e 3d 59 e9 8f 3d
       0.087407924 0.07480223 0.034683056 0.070269294
0002d0 f2 5e 1a 3d 18 80 13 bc 26 a4 99 bd 08 9a b5 bc
       0.037688203 -0.009002708 -0.07502012 -0.022168174
0002e0 86 4f 81 bd 3b 0d bd 3d c3 95 60 bd a0 d1 50 bd
       -0.06313996 0.09231039 -0.054830324 -0.050981164
0002f0 2e 67 15 3d 2c 11 e4 3c b2 87 71 3d e1 04 8d 3d
       0.036475353 0.02784022 0.0589673 0.06885696
000300 10 09 21 3c a4 c9 f3 3c 6f 0a af 3d be 05 0d 3d
       0.009828821 0.029759236 0.08546912 0.034429304
000310 5a d4 11 bd c8 bd bd 3c 98 9a 4d bc b2 29 31 3d
       -0.035602905 0.023161784 -0.012549065 0.043252654
000320 ed f0 a6 3d 5d 6c 81 3d 75 b2 35 bd 3f b3 3b be
       0.08151422 0.06319497 -0.044359643 -0.18330096
000330 ad a4 80 bd 2c 4a 8a 3c 24 d3 1a 3e 32 7e 50 3d
       -0.062814094 0.016881071 0.15119606 0.0509016
000340 91 10 ba 3d 46 61 12 be 6c 91 f3 3c d6 e8 41 3d
       0.09085191 -0.1429492 0.029732428 0.04734119
000350 9a ce d7 3d cd 2f 0c be 9c eb 12 bd 3f f5 8b 3c
       0.10537453 -0.1369011 -0.035869226 0.017084716
000360 30 e3 18 bd da a8 03 bd 61 c4 d1 3c c2 e3 49 3d
       -0.037326038 -0.03214345 0.025606336 0.049289472
000370 a8 26 87 3e 79 43 2d be bc 12 cf 3c 02 28 de bd
       0.2639668 -0.1692027 0.025277488 -0.10847475
000380 ba 0a c7 3d 7e 7b 95 bd e0 85 a5 3b 49 67 a1 3d
       0.09718843 -0.07298945 0.0050513595 0.07881028
000390 0b 67 8e be 7b e6 84 3d 29 53 11 bc 9a ab 24 bd
       -0.2781299 0.06489273 -0.008869925 -0.040202715
0003a0 0a 29 2e bd fb 59 31 3e 0f 6a b6 bd 52 01 62 3d
       -0.042519607 0.17319481 -0.08906948 0.05517704
0003b0 d4 16 12 be ac 52 18 bd c0 1a ec bc ad 0f 7d bd
       -0.1426652 -0.037188217 -0.02882135 -0.061782528
0003c0 a1 ad 78 3e 14 f9 f7 bc 68 71 99 bd 27 2b ae 3d
       0.24284984 -0.030270137 -0.07492334 0.085043244
0003d0 84 9f 87 bd fb fc 11 be 39 ac 61 be a3 71 c1 bd
       -0.06622222 -0.1425666 -0.22038354 -0.094455026
0003e0 69 e5 19 3d a9 2f 05 3e 50 b1 9a bb 51 89 9f 3d
       0.0375723 0.13006462 -0.0047208443 0.07789863
0003f0 00 56 10 3b f1 05 a0 3d 38 48 5a 3e 99 fe 9e 3d
       0.0022023916 0.07813633 0.21316612 0.077634044

model.2.bias f4 [100]
000000 24 5a 28 3e 2d 6e cb 3d e0 29 8d 3c 72 8b 1e 3d
       0.16440636 0.09933124 0.017231882 0.038707204
000010 de f8 7f 3e cd 6b 67 be 75 8c d5 bd 15 b3 f0 3d
       0.24997279 -0.22599716 -0.10427181 0.11752907
000020 50 62 ca 3d 03 c2 da bb b8 c5 c4 bd 31 63 10 be
       0.09882033 -0.00667596 -0.09608024 -0.14100339
000030 ab 7d f9 bd 18 d6 24 3e d7 9d a9 3d d2 30 9d be
       -0.121821724 0.16097295 0.08282059 -0.3070131
000040 48 1e 2e 3e 32 2e a0 3d 2e 55 62 3d 94 02 fe 3c
       0.17003739 0.07821311 0.055257015 0.031007089
000050 be 3c 53 3e a8 2d 5e 3c 27 d1 b0 3e 57 21 e1 3d
       0.2062864 0.01356069 0.3453457 0.10992687
000060 fe 61 0d 3e 23 f4 9d bd bc f2 ef bd 3e 90 ce 3e
       0.13806912 -0.07712581 -0.1171622 0.40344423
000070 20 25 c7 3b 37 ad ca bc 43 2e cb bd 64 b3 76 be
       0.0060774237 -0.024740798 -0.09920933 -0.2409187
000080 c0 54 87 3e 07 33 47 bd 4e 6f cf 3d 38 b2 76 3e
       0.26431847 -0.048632648 0.101286516 0.24091423
000090 f6 73 29 be a8 39 86 3c 93 71 7f 3d 35 f2 98 3e
       -0.16548142 0.016384915 0.062364172 0.2987229
0000a0 6d b0 58 3e 98 fa 9e bc e8 52 1d bd 3a 1d 58 3d
       0.21161051 -0.019406602 -0.038409144 0.052762248
0000b0 2b 4a 02 bf 68 3f 21 3c 77 b4 74 bd c1 0c 10 be
       -0.5089442 0.009841777 -0.059742417 -0.14067365
0000c0 e8 a5 23 bc ff 52 88 bd 4a aa 3b 3d 27 5e 9e be
       -0.009988286 -0.06656455 0.045816697 -0.30931208
0000d0 ab c2 c8 3d 05 1e 8e 3d 3c 84 00 3e 6a ee 2d 3d
       0.09802755 0.069393195 0.12550443 0.042463697
0000e0 0f 1c b2 bd 5e 53 0b 3b 53 a3 de 3d 1a 40 9f 3d
       -0.08696758 0.0021259408 0.108709954 0.07775898
0000f0 9f ac 9b 3e 18 a0 4a 3c e0 a4 dd bb 89 c7 bc bd
       0.30405137 0.012367271 -0.0067640394 -0.09217746
000100 ee c9 68 3e 8a 49 6c bd 27 e2 6e 3e 87 6b 65 be
       0.2273328 -0.05768732 0.23328458 -0.224043
000110 eb 37 ac bd 75 a7 9e 3b 63 d2 36 bd fa 9d 4d 3d
       -0.08409103 0.00484174 -0.044634234 0.050199486
000120 ba 97 24 3e 60 88 33 bb d5 80 65 3e a0 77 a4 bc
       0.16073504 -0.0027394518 0.22412427 -0.020076573
000130 46 65 1e 3d 52 86 3e 3e f1 4b bd 3e dd 86 5d 3d
       0.0386708 0.18605927 0.36972 0.054083694
000140 66 c0 87 be 13 32 00 be 71 b0 ba 3c cc 89 b1 bc
       -0.26513976 -0.12519102 0.022789212 -0.021672152
000150 a6 62 97 3d 3b bc 58 be 93 c9 ae 3d 2c cc 42 be
       0.073918626 -0.21165554 0.08534541 -0.19023198
000160 98 8d b8 3c f8 d7 d0 be b5 72 6e be 80 be 40 ba
       0.022528455 -0.4078977 -0.23285945 -0.00073526055
000170 1f e8 f2 3d c2 4e aa bd e0 57 df bd c6 f9 25 be
       0.1186068 -0.08315803 -0.10905433 -0.16208562
000180 33 84 ab 3c 8e a4 8d be 52 c5 89 be e3 6e 18 3b
       0.020937061 -0.27664608 -0.26908356 0.0023259453

model.4.weight f4 [3, 100]
000000 33 9b b7 3d 0d 83 a6 3d d1 ce 01 3e 68 06 04 3c
       0.08965149 0.08130465 0.1267655 0.008058168
000010 b2 ba b9 3d 00 65 0b bc 89 4b 0b bd d6 5d 3c be
       0.090688124 -0.008507967 -0.034007583 -0.1839517
000020 01 5b 1d 3e 9a 75 be bd 78 ac 37 be 6b 59 b3 bd
       0.15366746 -0.092997745 -0.17936885 -0.087572895
000030 33 b9 e0 3d 48 d4 f8 3d 53 53 c8 bd 1c 13 68 3c
       0.10972824 0.121498644 -0.09781518 0.014164712
000040 a7 69 86 3d 30 d3 32 be 5d 51 7a bd 0f 2b b7 3d
       0.0656312 -0.17463374 -0.06111275 0.0894376
000050 bf d5 e6 3d 00 5f 97 bc ec f0 28 be e2 62 45 3e
       0.112712376 -0.018477917 -0.16498154 0.19276002
000060 40 71 13 3e de 40 3a 3d 4e a6 2d be 17 f9 ea bd
       0.1439867 0.04547202 -0.16957971 -0.11473291
000070 86 68 1a 3d c4 4e ec 3d 20 37 66 bd 21 64 d2 bd
       0.037697338 0.11538461 -0.056204915 -0.10273004
000080 60 04 a5 3d 00 e5 99 3c ff f6 b2 3d 99 be e1 3d
       0.08057475 0.018785954 0.08738517 0.11022682
000090 e5 5c 07 be 20 34 8d bd 57 8c b6 ba 1f ea a1 bd
       -0.1321903 -0.06894708 -0.0013927323 -0.07905983
0000a0 83 19 e3 3d fb 57 a4 3d 5c c6 d7 3b 84 3c e1 3c
       0.1108885 0.080245934 0.0065849256 0.027494676
0000b0 1e e5 68 3f d9 d6 af 3d b0 20 b3 3b e9 55 19 be
       0.90974605 0.08585901 0.005466543 -0.14974178
0000c0 69 4f 9d 3d 1e db b8 bd 1e 18 a0 bc e4 30 21 bb
       0.07681162 -0.09026168 -0.01954275 -0.0024595791
0000d0 60 7f 17 bb 69 dd ad 3d f2 b6 88 3d 00 40 32 38
       -0.0023116693 0.08489496 0.06675519 4.249811e-05
0000e0 d8 53 30 3d 48 26 a9 bc 8b 0c 0a 3e f1 4a 16 bb
       0.04304871 -0.020648137 0.13481347 -0.0022932852
0000f0 0b 02 52 bc b6 67 4b 3d a7 a8 3b bd 61 1f 86 be
       -0.01281787 0.049659453 -0.045815136 -0.26195815
000100 fe 8b 96 3a ae 04 a8 bd 01 64 3d be b5 52 29 3e
       0.0011485813 -0.082040176 -0.1849518 0.16535456
000110 88 a7 90 3c f7 cc 5d be 0c 6e e8 bc 3f c0 ca bd
       0.01765801 -0.21660219 -0.028372787 -0.09899949
000120 27 68 00 3e d9 bc b8 3d 0c 30 01 3e d4 1d f6 3c
       0.12539731 0.09020395 0.12615985 0.03004352
000130 4f 2f cb bd 91 51 17 be 3d 07 db bd 96 28 2a be
       -0.09921133 -0.14777209 -0.1069474 -0.16617045
000140 5b 52 b1 bd 7e 0b 15 be fa 21 e2 3d 8e 66 5c 3d
       -0.08658286 -0.14555165 0.11041637 0.05380874
000150 6b 22 7e bd ae 3c 17 be 45 fa a4 3d 00 a7 ae bd
       -0.062044542 -0.14769241 0.080555476 -0.085279465
000160 72 a6 97 bd 67 f7 53 bb 13 5a 38 3c 52 b4 33 3d
       -0.07404794 -0.0032343508 0.011251944 0.04387314
000170 74 80 52 3b 78 1a bf 3c e1 64 f5 bc 11 e7 f4 3b
       0.003212002 0.023328051 -0.02995533 0.0074738343
000180 93 ea 81 bd 30 59 1d bc 0f df 54 3c 95 86 8b bb
       -0.063435696 -0.0096037835 0.012992634 -0.004257987
000190 d6 ba 3b 3e f0 c9 5b bd 35 c5 46 be a0 b9 2f 3b
       0.18332991 -0.05365938 -0.19411166 0.0026813522
0001a0 7e de cf 3e 55 ed e0 be fc 40 9a ba 99 d2 76 3d
       0.40599436 -0.4393107 -0.0011768634 0.060259435
0001b0 4e ad 55 be 60 34 8b 3d 71 5a 0a be 7a 1d 02 bf
       -0.20866892 0.06797099 -0.13511063 -0.5082623
0001c0 4d 4e 91 c0 de d3 d1 3e d3 01 45 bd 7b ed 03 bf
       -4.540808 0.40981954 -0.048097443 -0.5153424
0001d0 7c e6 af 3e 00 03 00 3e fa 99 54 bd 6c 24 ad 3c
       0.34355533 0.12501144 -0.051904656 0.021135531
0001e0 db 9e c6 3e a8 39 36 bc 88 ba cc 3e 17 45 5d be
       0.38793072 -0.011122145 0.39986062 -0.21608387
0001f0 5d 53 f6 3e c0 88 3e bc 46 b6 89 3c 33 1f 7c 3e
       0.48110476 -0.011629283 0.016810548 0.24621277
000200 ed fa ba bd 48 b7 28 c0 b8 97 da bc e2 ec 93 be
       -0.091298915 -2.6361866 -0.026683673 -0.28891665
000210 e9 ec c9 3e 57 18 53 bd dc 53 b5 3e 39 1a db 3e
       0.3943856 -0.051536884 0.35415542 0.42793444
000220 52 50 24 bd da 91 83 bd 5d d2 b7 3d 28 c7 ed 3e
       -0.040115662 -0.06424303 0.089756705 0.46441007
000230 89 a0 e4 3e b5 b8 8a bd 30 60 67 bd e0 cd ef bb
       0.4465373 -0.06773511 -0.056488216 -0.0073182434
000240 47 16 37 c0 c6 79 96 bd 4d 44 6a bd 1b ce d4 bb
       -2.8607347 -0.07347445 -0.057194043 -0.0064942962
000250 99 67 a7 3d dc 79 9c 3d 69 9d 2e 3d b1 a3 e2 be
       0.081740566 0.0764043 0.042630587 -0.44265512
000260 40 65 48 bd 7f ee 9e 3d b2 ca 58 3e 9a 7e 14 bd
       -0.048924685 0.07760333 0.21171072 -0.03625355
000270 10 80 53 be c0 8e 89 bd dd 8e b5 3e 95 13 9d bc
       -0.2065432 -0.067166805 0.3546056 -0.019174377
000280 69 bc c6 3e a3 af ca 3d 82 06 b4 bd 8b 01 81 3d
       0.3881562 0.09896781 -0.08790304 0.062991224
000290 93 f9 d1 3e 7f 18 17 3d 56 c8 a2 3e 5f 9c 45 bf
       0.41010723 0.036888596 0.3179347 -0.7719173
0002a0 4e 8a 53 3d 20 b8 4c 3a 78 e9 92 bc 9f 02 c2 bd
       0.05164557 0.0007809419 -0.017933592 -0.09473156
0002b0 97 2d 4f be 69 21 b2 3d 3e a8 da 3e 06 0d 3e 3d
       -0.20232235 0.08697779 0.42706484 0.04639914
0002c0 06 2b 15 3d 33 ba 9c 3e cb 78 a3 3e 0f d2 db 3d
       0.036417983 0.3061081 0.31928095 0.10733425
0002d0 91 34 a7 bd 87 e8 3b be 41 61 16 be 2a 63 be bd
       -0.08164323 -0.18350421 -0.14685537 -0.09296258
0002e0 a8 6c 8b bd da 04 03 be 9e 37 ad bd ee a2 c3 be
       -0.06807834 -0.1279482 -0.08457874 -0.38210243
0002f0 2e 90 01 3d 59 eb dd be 35 24 c1 be 8d f6 37 bd
       0.03163164 -0.4334362 -0.37722936 -0.044912864
000300 78 1a 9d 3e b0 e7 bc bd 32 4d 15 be 75 c5 bc be
       0.30684257 -0.092238784 -0.14580229 -0.36869398
000310 43 7f 50 3d 6b a9 05 bf b5 67 ca be 26 75 5a 3d
       0.050902616 -0.52211636 -0.39532247 0.053334378
000320 f9 4c 93 be 72 48 87 bd 9d 50 2d bd d4 c0 c3 3c
       -0.28769663 -0.06605615 -0.042313207 0.023895659
000330 3d 16 e1 be 3a 2d d8 3e 76 93 b9 3b d0 bb 0e bc
       -0.4396228 0.42222005 0.0056633307 -0.00871177
000340 87 3e b5 bd b5 96 1c bd 4d d3 06 3e bf d9 c8 3e
       -0.08849817 -0.038229663 0.13166542 0.39228627
000350 34 c7 78 40 fd 4a c3 be 72 a0 5a 3d 2e 89 cd 3e
       3.8871584 -0.3814315 0.05337567 0.40143722
000360 f9 ab 9a be 74 11 dc bc 3a 35 00 3d c1 48 8c 3d
       -0.3020933 -0.026863791 0.03130076 0.06849814
000370 3a 3b cf be 12 b4 77 3d 7d 0d 92 be 4a 2f 86 bd
       -0.40474874 0.060474463 -0.28525916 -0.065519884
000380 08 0e ca be 4e 57 4a 3d d7 7c 61 3e fb 20 6f be
       -0.3946383 0.049399666 0.22020279 -0.23352425
000390 90 7c a1 bd 23 7a 1c 40 20 33 e5 bb 63 36 af 3e
       -0.078850865 2.4449546 -0.00699462 0.3422118
0003a0 97 1a fa be 31 3d 93 3d b2 06 dc be 0a 23 78 be
       -0.4884841 0.07189406 -0.42973858 -0.24232116
0003b0 21 e6 31 3e 52 44 38 3d 49 77 a4 3d bd 45 b1 be
       0.17372943 0.04498703 0.08030564 -0.3462352
0003c0 38 c1 ea be df f1 89 3d b6 09 b3 bd 8c 41 83 3c
       -0.4585054 0.067355864 -0.087420866 0.016022466
0003d0 83 1e 34 40 7a 36 a6 bd 80 52 57 bd fa b6 72 3e
       2.8143623 -0.08115859 -0.052568913 0.23702613
0003e0 5a 92 87 bd 59 d7 44 3e 86 1d 4b bd 6f a1 f2 3e
       -0.06619711 0.19222774 -0.049588703 0.4738879
0003f0 7a 1e 20 3d b0 1d 77 bd 75 fa 93 be 18 3a 97 bc
       0.039091565 -0.060331047 -0.2890202 -0.018460318

model.4.bias f4 [3]
000000 f4 50 a3 3d d4 8d 57 3e 8d aa 56 be
       0.07974425 0.21050197 -0.20963497
